nohup: 忽略输入
ConvAttMLP(
  (bn0): BatchNorm1d(3300, eps=1e-05, momentum=0.1, affine=True, track_running_stats=True)
  (fc1): Linear(in_features=3300, out_features=1100, bias=True)
  (fc11): Linear(in_features=1100, out_features=1100, bias=True)
  (bn1): BatchNorm1d(1100, eps=1e-05, momentum=0.1, affine=True, track_running_stats=True)
  (fc2): Linear(in_features=1100, out_features=100, bias=True)
  (bn2): BatchNorm1d(100, eps=1e-05, momentum=0.1, affine=True, track_running_stats=True)
  (fc3): Linear(in_features=100, out_features=9, bias=True)
  (bn3): BatchNorm1d(9, eps=1e-05, momentum=0.1, affine=True, track_running_stats=True)
  (drop): Dropout(p=0.5, inplace=False)
  (conv1): Conv1d(1, 8, kernel_size=(5,), stride=(1,), padding=(2,))
  (bn4): BatchNorm1d(3300, eps=1e-05, momentum=0.1, affine=True, track_running_stats=True)
  (conv2): Conv1d(8, 16, kernel_size=(5,), stride=(1,), padding=(2,))
  (bn5): BatchNorm1d(3300, eps=1e-05, momentum=0.1, affine=True, track_running_stats=True)
  (pool2): MaxPool1d(kernel_size=3, stride=3, padding=0, dilation=1, ceil_mode=False)
  (conv3): Conv1d(16, 1, kernel_size=(1,), stride=(1,))
  (pool3): MaxPool1d(kernel_size=3, stride=3, padding=0, dilation=1, ceil_mode=False)
  (bn6): BatchNorm1d(1100, eps=1e-05, momentum=0.1, affine=True, track_running_stats=True)
  (bn7): BatchNorm1d(1100, eps=1e-05, momentum=0.1, affine=True, track_running_stats=True)
  (avg_pool): AvgPool1d(kernel_size=(3300,), stride=(3300,), padding=(0,))
  (max_pool): MaxPool1d(kernel_size=3300, stride=3300, padding=0, dilation=1, ceil_mode=False)
  (fc): Sequential(
    (0): Conv1d(16, 2, kernel_size=(1,), stride=(1,), bias=False)
    (1): ReLU()
    (2): Conv1d(2, 16, kernel_size=(1,), stride=(1,), bias=False)
    (3): Sigmoid()
  )
)
MLP1(
  (bn0): BatchNorm1d(237, eps=1e-05, momentum=0.1, affine=True, track_running_stats=True)
  (fc1): Linear(in_features=237, out_features=2000, bias=True)
  (bn1): BatchNorm1d(2000, eps=1e-05, momentum=0.1, affine=True, track_running_stats=True)
  (fc2): Linear(in_features=2000, out_features=100, bias=True)
  (bn2): BatchNorm1d(100, eps=1e-05, momentum=0.1, affine=True, track_running_stats=True)
  (fc3): Linear(in_features=100, out_features=9, bias=True)
  (bn3): BatchNorm1d(9, eps=1e-05, momentum=0.1, affine=True, track_running_stats=True)
  (drop): Dropout(p=0.5, inplace=False)
)
549 3301
549 3301
total_train_accuracy: tensor(0.1341, device='cuda:0')
Training Epoch: 0, total loss: 269.772384
total_train_accuracy: tensor(0.1829, device='cuda:0')
Training Epoch: 1, total loss: 267.510077
total_train_accuracy: tensor(0.1789, device='cuda:0')
Training Epoch: 2, total loss: 266.722992
…
[tensor(0.5962, device='cuda:0'), tensor(0.6731, device='cuda:0'), tensor(0.6923, device='cuda:0'), tensor(0.6923, device='cuda:0'), tensor(0.7692, device='cuda:0'), tensor(0.8077, device='cuda:0'), tensor(0.9038, device='cuda:0'), tensor(0.8462, device='cuda:0'), tensor(0.9038, device='cuda:0'), tensor(0.8077, device='cuda:0')]
[array(0.59615386, dtype=float32), array(0.6730769, dtype=float32), array(0.6923077, dtype=float32), array(0.6923077, dtype=float32), array(0.7692308, dtype=float32), array(0.80769235, dtype=float32), array(0.9038462, dtype=float32), array(0.84615386, dtype=float32), array(0.9038462, dtype=float32), array(0.80769235, dtype=float32)]
acc_test_metrics: 0.7692308
ConvAtt_without_MLP(
  (bn0): BatchNorm1d(3300, eps=1e-05, momentum=0.1, affine=True, track_running_stats=True)
  (fc1): Linear(in_features=3300, out_features=1100, bias=True)
  (fc11): Linear(in_features=1100, out_features=1100, bias=True)
  (bn1): BatchNorm1d(1100, eps=1e-05, momentum=0.1, affine=True, track_running_stats=True)
  (fc2): Linear(in_features=1100, out_features=100, bias=True)
  (bn2): BatchNorm1d(100, eps=1e-05, momentum=0.1, affine=True, track_running_stats=True)
  (fc3): Linear(in_features=100, out_features=9, bias=True)
  (bn3): BatchNorm1d(9, eps=1e-05, momentum=0.1, affine=True, track_running_stats=True)
  (drop): Dropout(p=0.5, inplace=False)
  (conv1): Conv1d(1, 8, kernel_size=(5,), stride=(1,), padding=(2,))
  (bn4): BatchNorm1d(3300, eps=1e-05, momentum=0.1, affine=True, track_running_stats=True)
  (conv2): Conv1d(8, 16, kernel_size=(5,), stride=(1,), padding=(2,))
  (bn5): BatchNorm1d(3300, eps=1e-05, momentum=0.1, affine=True, track_running_stats=True)
  (pool2): MaxPool1d(kernel_size=3, stride=3, padding=0, dilation=1, ceil_mode=False)
  (conv3): Conv1d(16, 1, kernel_size=(1,), stride=(1,))
  (pool3): MaxPool1d(kernel_size=3, stride=3, padding=0, dilation=1, ceil_mode=False)
  (bn6): BatchNorm1d(1100, eps=1e-05, momentum=0.1, affine=True, track_running_stats=True)
  (bn7): BatchNorm1d(1100, eps=1e-05, momentum=0.1, affine=True, track_running_stats=True)
  (avg_pool): AvgPool1d(kernel_size=(3300,), stride=(3300,), padding=(0,))
  (max_pool): MaxPool1d(kernel_size=3300, stride=3300, padding=0, dilation=1, ceil_mode=False)
  (fc): Sequential(
    (0): Conv1d(16, 2, kernel_size=(1,), stride=(1,), bias=False)
    (1): ReLU()
    (2): Conv1d(2, 16, kernel_size=(1,), stride=(1,), bias=False)
    (3): Sigmoid()
  )
)
138 3301
x0: torch.Size([4, 1, 3300])
x0: torch.Size([4, 1, 3300])
x0: torch.Size([4, 1, 3300])
x0: torch.Size([4, 1, 3300])
x0: torch.Size([4, 1, 3300])
x0: torch.Size([4, 1, 3300])
x0: torch.Size([4, 1, 3300])
x0: torch.Size([4, 1, 3300])
x0: torch.Size([4, 1, 3300])
x0: torch.Size([4, 1, 3300])
x0: torch.Size([4, 1, 3300])
…
