nohup: 忽略输入
ConvAttMLP_10layers_cat_without_res(
  (bn0): BatchNorm1d(3300, eps=1e-05, momentum=0.1, affine=True, track_running_stats=True)
  (fc1): Linear(in_features=3300, out_features=1100, bias=True)
  (fc11): Linear(in_features=1100, out_features=1100, bias=True)
  (bn1): BatchNorm1d(1100, eps=1e-05, momentum=0.1, affine=True, track_running_stats=True)
  (fc2): Linear(in_features=2200, out_features=100, bias=True)
  (bn2): BatchNorm1d(100, eps=1e-05, momentum=0.1, affine=True, track_running_stats=True)
  (fc3): Linear(in_features=100, out_features=9, bias=True)
  (bn3): BatchNorm1d(9, eps=1e-05, momentum=0.1, affine=True, track_running_stats=True)
  (drop): Dropout(p=0.5, inplace=False)
  (conv1): Conv1d(1, 8, kernel_size=(5,), stride=(1,), padding=(2,))
  (conv2): Conv1d(8, 16, kernel_size=(5,), stride=(1,), padding=(2,))
  (conv3): Conv1d(16, 16, kernel_size=(5,), stride=(1,), padding=(2,))
  (conv4): Conv1d(16, 1, kernel_size=(1,), stride=(1,))
  (bn4): BatchNorm1d(3300, eps=1e-05, momentum=0.1, affine=True, track_running_stats=True)
  (bn5): BatchNorm1d(3300, eps=1e-05, momentum=0.1, affine=True, track_running_stats=True)
  (pool2): MaxPool1d(kernel_size=3, stride=3, padding=0, dilation=1, ceil_mode=False)
  (pool3): MaxPool1d(kernel_size=3, stride=3, padding=0, dilation=1, ceil_mode=False)
  (bn6): BatchNorm1d(1100, eps=1e-05, momentum=0.1, affine=True, track_running_stats=True)
  (bn7): BatchNorm1d(2200, eps=1e-05, momentum=0.1, affine=True, track_running_stats=True)
  (avg_pool): AvgPool1d(kernel_size=(3300,), stride=(3300,), padding=(0,))
  (max_pool): MaxPool1d(kernel_size=3300, stride=3300, padding=0, dilation=1, ceil_mode=False)
  (fc): Sequential(
    (0): Conv1d(16, 2, kernel_size=(1,), stride=(1,), bias=False)
    (1): ReLU()
    (2): Conv1d(2, 16, kernel_size=(1,), stride=(1,), bias=False)
    (3): Sigmoid()
  )
  (layers): ModuleList(
    (0): Sequential(
      (0): Conv1d(1, 8, kernel_size=(5,), stride=(1,), padding=(2,))
      (1): BatchNorm1d(3300, eps=1e-05, momentum=0.1, affine=True, track_running_stats=True)
      (2): Conv1d(8, 16, kernel_size=(5,), stride=(1,), padding=(2,))
      (3): Conv1d(16, 16, kernel_size=(5,), stride=(1,), padding=(2,))
      (4): Conv1d(16, 1, kernel_size=(1,), stride=(1,))
      (5): AvgPool1d(kernel_size=(3300,), stride=(3300,), padding=(0,))
      (6): MaxPool1d(kernel_size=3300, stride=3300, padding=0, dilation=1, ceil_mode=False)
    )
    (1): Sequential(
      (0): Conv1d(1, 8, kernel_size=(5,), stride=(1,), padding=(2,))
      (1): BatchNorm1d(3300, eps=1e-05, momentum=0.1, affine=True, track_running_stats=True)
      (2): Conv1d(8, 16, kernel_size=(5,), stride=(1,), padding=(2,))
      (3): Conv1d(16, 16, kernel_size=(5,), stride=(1,), padding=(2,))
      (4): Conv1d(16, 1, kernel_size=(1,), stride=(1,))
      (5): AvgPool1d(kernel_size=(3300,), stride=(3300,), padding=(0,))
      (6): MaxPool1d(kernel_size=3300, stride=3300, padding=0, dilation=1, ceil_mode=False)
    )
  )
)
MLP1(
  (bn0): BatchNorm1d(237, eps=1e-05, momentum=0.1, affine=True, track_running_stats=True)
  (fc1): Linear(in_features=237, out_features=2000, bias=True)
  (bn1): BatchNorm1d(2000, eps=1e-05, momentum=0.1, affine=True, track_running_stats=True)
  (fc2): Linear(in_features=2000, out_features=100, bias=True)
  (bn2): BatchNorm1d(100, eps=1e-05, momentum=0.1, affine=True, track_running_stats=True)
  (fc3): Linear(in_features=100, out_features=9, bias=True)
  (bn3): BatchNorm1d(9, eps=1e-05, momentum=0.1, affine=True, track_running_stats=True)
  (drop): Dropout(p=0.5, inplace=False)
)
549 3301
549 3301
total_train_accuracy: tensor(0.1524, device='cuda:0')
Training Epoch: 0, total loss: 269.040672
total_train_accuracy: tensor(0.1646, device='cuda:0')
Training Epoch: 1, total loss: 268.315934
total_train_accuracy: tensor(0.2215, device='cuda:0')
Training Epoch: 2, total loss: 266.084284
…
  mean_tpr += interp(all_fpr, fpr[i], tpr[i])
ConvAttMLP_new.py:1584: DeprecationWarning: scipy.interp is deprecated and will be removed in SciPy 2.0.0, use numpy.interp instead
  mean_tpr += interp(all_fpr, fpr[i], tpr[i])
ConvAttMLP_new.py:1584: DeprecationWarning: scipy.interp is deprecated and will be removed in SciPy 2.0.0, use numpy.interp instead
  mean_tpr += interp(all_fpr, fpr[i], tpr[i])
ConvAttMLP_new.py:1584: DeprecationWarning: scipy.interp is deprecated and will be removed in SciPy 2.0.0, use numpy.interp instead
  mean_tpr += interp(all_fpr, fpr[i], tpr[i])
ConvAttMLP_10layers_cat_without_res(
  (bn0): BatchNorm1d(3300, eps=1e-05, momentum=0.1, affine=True, track_running_stats=True)
  (fc1): Linear(in_features=3300, out_features=1100, bias=True)
  (fc11): Linear(in_features=1100, out_features=1100, bias=True)
  (bn1): BatchNorm1d(1100, eps=1e-05, momentum=0.1, affine=True, track_running_stats=True)
  (fc2): Linear(in_features=2200, out_features=100, bias=True)
  (bn2): BatchNorm1d(100, eps=1e-05, momentum=0.1, affine=True, track_running_stats=True)
  (fc3): Linear(in_features=100, out_features=9, bias=True)
  (bn3): BatchNorm1d(9, eps=1e-05, momentum=0.1, affine=True, track_running_stats=True)
  (drop): Dropout(p=0.5, inplace=False)
  (conv1): Conv1d(1, 8, kernel_size=(5,), stride=(1,), padding=(2,))
  (conv2): Conv1d(8, 16, kernel_size=(5,), stride=(1,), padding=(2,))
  (conv3): Conv1d(16, 16, kernel_size=(5,), stride=(1,), padding=(2,))
  (conv4): Conv1d(16, 1, kernel_size=(1,), stride=(1,))
  (bn4): BatchNorm1d(3300, eps=1e-05, momentum=0.1, affine=True, track_running_stats=True)
  (bn5): BatchNorm1d(3300, eps=1e-05, momentum=0.1, affine=True, track_running_stats=True)
  (pool2): MaxPool1d(kernel_size=3, stride=3, padding=0, dilation=1, ceil_mode=False)
  (pool3): MaxPool1d(kernel_size=3, stride=3, padding=0, dilation=1, ceil_mode=False)
  (bn6): BatchNorm1d(1100, eps=1e-05, momentum=0.1, affine=True, track_running_stats=True)
  (bn7): BatchNorm1d(2200, eps=1e-05, momentum=0.1, affine=True, track_running_stats=True)
  (avg_pool): AvgPool1d(kernel_size=(3300,), stride=(3300,), padding=(0,))
  (max_pool): MaxPool1d(kernel_size=3300, stride=3300, padding=0, dilation=1, ceil_mode=False)
  (fc): Sequential(
    (0): Conv1d(16, 2, kernel_size=(1,), stride=(1,), bias=False)
    (1): ReLU()
    (2): Conv1d(2, 16, kernel_size=(1,), stride=(1,), bias=False)
    (3): Sigmoid()
  )
  (layers): ModuleList(
    (0): Sequential(
      (0): Conv1d(1, 8, kernel_size=(5,), stride=(1,), padding=(2,))
      (1): BatchNorm1d(3300, eps=1e-05, momentum=0.1, affine=True, track_running_stats=True)
      (2): Conv1d(8, 16, kernel_size=(5,), stride=(1,), padding=(2,))
      (3): Conv1d(16, 16, kernel_size=(5,), stride=(1,), padding=(2,))
      (4): Conv1d(16, 1, kernel_size=(1,), stride=(1,))
      (5): AvgPool1d(kernel_size=(3300,), stride=(3300,), padding=(0,))
      (6): MaxPool1d(kernel_size=3300, stride=3300, padding=0, dilation=1, ceil_mode=False)
    )
    (1): Sequential(
      (0): Conv1d(1, 8, kernel_size=(5,), stride=(1,), padding=(2,))
      (1): BatchNorm1d(3300, eps=1e-05, momentum=0.1, affine=True, track_running_stats=True)
      (2): Conv1d(8, 16, kernel_size=(5,), stride=(1,), padding=(2,))
      (3): Conv1d(16, 16, kernel_size=(5,), stride=(1,), padding=(2,))
      (4): Conv1d(16, 1, kernel_size=(1,), stride=(1,))
      (5): AvgPool1d(kernel_size=(3300,), stride=(3300,), padding=(0,))
      (6): MaxPool1d(kernel_size=3300, stride=3300, padding=0, dilation=1, ceil_mode=False)
    )
  )
)
138 3301
f1_score:  %.4f 0.6668391712251363
accuracy_score: 0.7246376811594203
recall_score: 0.6946199334434628
pre_recall: 0.6536929488858648
n_classes: 9
